CNN-LSTM/Final/Model/conv_net_model.ckpt (torch, 797623 bytes, 16 tensors)

layer1.0.weight f4 [64, 128, 5]
0.037579864 0.034970127 0.009872359 0.03789934 0.00015639306 0.015414774 -0.0066642123 -0.016827917
-0.015351002 0.029421072 -0.014005196 -0.017585127 0.004822563 0.013547694 -0.02751984 -0.010701597
0.020798529 -0.003984638 0.036388755 0.022355977 0.010501932 -0.009486948 0.014854588 0.029012814
0.013082588 -0.01503109 0.04095071 0.00980981 -0.035469424 -0.025987247 0.041488208 0.01005893
-0.02000439 0.01610195 0.0249437 -0.029741535 0.028786285 0.031932127 -0.023814233 -0.0082005905
-0.035197087 0.0316523 -0.010185531 0.037815258 0.028220948 0.0238005 0.018487768 -0.029275361
0.0035391222 0.015444119 -0.0050958903 -0.026343 -0.026299825 0.003987841 -0.004033356 -0.012790818
-0.028843723 0.03351687 -0.008479545 -0.017312067 0.027773803 0.033874948 0.01864149 -0.015739957
0.03806795 -0.001119087 -0.0069072824 0.03193385 -0.0012593671 -0.014493825 -0.02808092 -0.0024228
0.02547226 0.01561316 -0.017445209 0.005763035 -0.009363883 0.019116463 0.0011051021 -0.00737836
-0.0012547261 0.024537016 0.011737795 0.015386442 -0.020131255 0.017884014 0.009795954 0.035075594
0.031628657 -0.011698419 -0.0067679267 -0.018522553 0.0017424907 0.026009185 0.03582939 0.020696642
0.02322916 -0.001624996 0.0019087453 0.011254465 -0.0028430088 0.004823183 0.029218229 -0.034366995
-0.023143955 -0.024139443 -0.008532482 -0.004110167 -0.010083697 -0.037244454 0.02060171 -0.017437613
-0.02245234 -0.009507446 -0.015887136 -0.028896965 -0.021939408 0.021492036 0.028463941 -0.00584377
-0.0072240084 0.0076243905 -0.0066105016 -0.03817059 -0.015033764 -0.034213405 0.016635126 -0.03061405
-0.019758219 0.003399309 -0.012858013 -0.021608733 -0.00037670336 0.009795415 0.0033380322 -0.027673708
0.029152194 -0.0032354982 -0.0365906 -0.0059582344 0.032099288 0.030799245 0.03700601 -0.017226225
-0.0027125156 -0.025425997 -0.019484365 -0.02287491 0.0008566249 -0.012742533 -0.031500183 0.0020873453
-0.01200571 -0.020423522 -0.0035181679 0.032384694 0.036940973 -0.031007797 -0.035962366 -0.03758875
0.021285534 -0.025349654 0.03917012 0.017391345 -0.031985667 -0.02929776 -0.013442242 0.034404367
0.034112476 -0.02961328 0.0005709437 0.038009353 0.021225663 0.03541147 -0.032037884 -0.0114307515
-0.00855677 0.0024181067 0.03180592 0.036753055 0.030328672 -0.034005873 0.02377694 0.014110839
-0.038210038 0.017564196 -0.025414508 0.00799606 0.020394696 -0.0282075 -0.019776851 0.010275074
-0.032303076 -0.0068939137 0.0072891787 -0.017710581 -0.024595166 0.021288536 0.01906806 -0.008129472
-0.022658372 0.023214044 -0.028018964 -0.03307194 -0.03401182 -0.02159485 0.038795773 -0.025428882
0.019482242 0.03945227 0.03598679 -0.033318315 -0.020077791 0.031343024 -0.03053574 -0.030474445
0.035641268 -0.019165015 -0.013406677 0.0088428445 0.035447564 -0.0020912034 0.007946039 -0.03170271
-0.015359689 -0.004728756 0.031965725 0.023120416 -0.012191612 0.028560651 0.03343199 -0.022451451
-0.022794992 -0.012707073 -0.009899322 -0.0076308926 0.0115004955 -0.001701621 0.022505527 0.028663106
0.03444474 0.0004955699 -0.022165775 -0.030719046 0.03469763 0.013414197 -0.009833584 0.0014345194
-0.0152832335 0.006705528 -6.9654416e-05 0.014783181 -0.01730536 0.0034945786 -0.010231021 -0.0006975669
00000000: 58ed 193d d63c 0f3d adbf 213c 573c 1b3d
00000010: 71fd 2339 408e 7c3c 775f dabb b3da 89bc
00000020: c582 7bbc 7604 f13c 0d76 65bc af0e 90bc
00000030: 9706 9e3b 26f7 5d3c 4a71 e1bc c055 2fbc
00000040: ad61 aa3c 9191 82bb 600c 153d e223 b73c
00000050: 4c10 2c3c 256f 1bbc a860 733c 48ac ed3c
00000060: 5a58 563c f644 76bc efbb 273d 53b9 203c
00000070: 6348 11bd 35e3 d4bc 8aef 293d 36ce 243c
00000080: 3fe0 a3bc 3de8 833c bb56 cc3c 85a4 f3bc
00000090: 37d1 eb3c 43cb 023d 1116 c3bc c55b 06bc
000000a0: d22a 10bd d8a5 013d 37e1 26bc 2ce4 1a3d
000000b0: 9e2f e73c 44f9 c23c a973 973c e2d2 efbc
000000c0: 9ef0 673b 5509 7d3c 6dfb a6bb 46cd d7bc
000000d0: bb72 d7bc 6fac 823b 3e2a 84bb 9490 51bc
000000e0: ac49 ecbc fc48 093d caed 0abc 09d2 8dbc
000000f0: e385 e33c 75c0 0a3d 0ab6 983c 15f1 80bc
00000100: 24ed 1b3d 54ae 92ba 7c56 e2bb 12cd 023d
00000110: 5911 a5ba 8277 6dbc f509 e6bc d7c7 1ebb
00000120: 33ab d03c 57ce 7f3c 41e9 8ebc d7d7 bc3b
00000130: f96a 19bc 219a 9c3c 13d9 903a 2bc6 f1bb
00000140: 9f75 a4ba da01 c93c e14f 403c 6a17 7c3c
00000150: 4dea a4bc 7f81 923c 367f 203c 6dab 0f3d
00000160: 0d8d 013d baaa 3fbc 7cc5 ddbb 9cbc 97bc
00000170: 4964 e43a 3711 d53c d7c1 123d 018c a93c
00000180: 144b be3c d1fd d4ba dd2e fa3a a664 383c
00000190: c651 3abb cb0b 9e3b 115b ef3c 68c4 0cbd
000001a0: 6498 bdbc 15c0 c5bc d3cb 0bbc 94ae 86bb
000001b0: 1736 25bc a48d 18bd ebc4 a83c 53d9 8ebc
000001c0: f8ed b7bc 1ec5 1bbc bd25 82bc 54b9 ecbc
000001d0: 46ba b3bc 1110 b03c 362d e93c 197d bfbb
000001e0: 60b7 ecbb 06d6 f93b e89c d8bb c458 1cbd
000001f0: 2d50 76bc 5b23 0cbd 6346 883c 51ca fabc
00000200: fddb a1bc f1c6 5e3b 6aaa 52bc cc04 b1bc
00000210: 4580 c5b9 f37c 203c e3c2 5a3b f9b3 e2bc
00000220: 95d0 ee3c a70a 54bb 06e0 15bd 4b3d c3bb
00000230: 8b7a 033d b34e fc3c 9d93 173d 031e 8dbc
00000240: 76c4 31bb 2e4a d0bc ad9d 9fbc 2a64 bbbc
00000250: 208f 603a 0fc6 50bc 5606 01bd d8cb 083b
00000260: 99b3 44bc 3b4f a7bc 1091 66bb d0a5 043d
00000270: 6b4f 173d 1004 febc 464d 13bd a9f6 19bd
00000280: 005f ae3c 14aa cfbc d970 203d 4b78 8e3c
00000290: 6703 03bd db01 f0bc d93c 5cbc 98eb 0c3d
000002a0: 86b9 0b3d 8d97 f2bc 62ab 153a b2af 1b3d
000002b0: 71e1 ad3c 9e0b 113d 283a 03bd 0c48 3bbc
000002c0: b231 0cbc 1979 1e3b ed46 023d 5f8a 163d
000002d0: d673 f83c be49 0bbd dbc7 c23c 2631 673c
000002e0: 2182 1cbd cae2 8f3c 1632 d0bc e801 033c
000002f0: c712 a73c 6a13 e7bc 1003 a2bc c958 283c
00000300: 3b50 04bd 57e6 e1bb 10da ee3b c815 91bc
00000310: cd7b c9bc 4c65 ae3c 9f34 9c3c 7a31 05bc
00000320: 0d9e b9bc 612b be3c 0788 e5bc 7176 07bd
00000330: fa4f 0bbd afe7 b0bc 51e8 1e3d 3b50 d0bc
00000340: 3999 9f3c b498 213d e266 133d c978 08bd
00000350: 2e7a a4bc 8b61 003d 1726 fabc 8ba5 f9bc
00000360: 94fc 113d f3ff 9cbc aea7 5bbc 94e1 103c
00000370: 7731 113d 920c 09bb 1a30 023c b3da 01bd
00000380: 34a7 7bbc aef3 9abb 7eee 023d 0767 bd3c
00000390: 54bf 47bc 07f8 e93c fbef 083d 1bec b7bc
000003a0: 90bc babc 5431 50bc c430 22bc 910c fabb
000003b0: 936c 3c3c ed08 dfba 835d b83c e4ce ea3c
000003c0: ed15 0d3d 22e9 013a 0095 b5bc 82a6 fbbc
000003d0: 1a1f 0e3d 38c7 5b3c 0a1d 21bc 7c06 bc3a
000003e0: 8766 7abc 0cba db3b 6e13 92b8 2835 723c
000003f0: f8c3 8dbc 4d05 653b 03a0 27bc ecdc 36ba

layer1.0.bias f4 [64]
0.012430928 0.0109234825 -0.052050713 -0.034628466 -0.013918148 -0.036087 0.023129592 0.026678588
-0.044554655 -0.0011483729 -0.043016765 -0.029744618 -0.026216112 0.020912714 0.021632547 0.0104613975
-0.008931443 0.011429168 -0.03327758 0.0041947137 0.03717975 -0.03843496 0.006494984 -0.026613476
-0.012089521 -0.008065812 -0.03859443 0.0032553996 0.021368815 0.0074956566 0.014670999 -0.0049639507
0.0346298 -0.0010716148 -0.012677992 -0.028487636 0.016691292 -0.033763655 -0.04706259 0.010243159
-0.007741585 0.018935055 -0.0293136 -0.0115858875 -0.040423885 0.023321744 0.036863364 -0.019802978
0.047988333 -0.012955714 -0.037376236 0.017262433 0.007710745 0.0076247784 -0.047329064 -0.018444868
-0.022295095 -0.037390612 -0.0017638505 0.016756559 -0.008338814 0.014813826 -0.03545347 -0.012408781
00000000: 17ab 4b3c 68f8 323c 2133 55bd 94d6 0dbd
00000010: f208 64bc f6cf 13bd 457a bd3c 0e8d da3c
00000020: f17e 36bd 0085 96ba 5932 30bd fcaa f3bc
00000030: 2cc3 d6bc 2451 ab3c bd36 b13c 4866 2b3c
00000040: 3055 12bc 6841 3b3c 124e 08bd cf73 893b
00000050: cb49 183d fa6d 1dbd e0d3 d43b 8104 dabc
00000060: 2013 46bc 7826 04bc 3115 1ebd 8b58 553b
00000070: a70d af3c 209e f53b a15e 703c a3a8 a2bb
00000080: fad7 0d3d 6d75 8cba 5ab7 4fbc e75e e9bc
00000090: 2dbc 883c c24b 0abd b4c4 40bd ecd2 273c
000000a0: 1fad fdbb b01d 9b3c 1323 f0bc bcd2 3dbc
000000b0: 8493 25bd 3e0d bf3c 0afe 163d db39 a2bc
000000c0: 6a8f 443d 3444 54bc d317 19bd f269 8d3c
000000d0: 6baa fc3b 47d9 f93b 1fdc 41bd b119 97bc
000000e0: 34a4 b6bc e626 19bd 0031 e7ba 0d45 893c
000000f0: 859f 08bc b1b5 723c a837 11bd 334e 4bbc

layer2.0.weight f4 [128, 64, 3]
-0.05416236 0.06496501 0.056320947 0.014454542 0.0759187 0.08005597 0.07272882 0.018845556
-0.04502921 0.010391735 0.00118943 0.06713184 -0.06364199 0.042964716 -0.048704963 0.01784124
-0.054081846 -0.010342792 0.009891482 0.052054666 -0.009361587 0.010563426 -0.027347825 0.0539833
0.043501567 -0.06379803 -0.061938062 0.06507514 -0.006978825 -0.006237912 0.03475179 -0.036986604
-0.029962514 -0.0063226745 -0.07080305 0.0046023205 0.033506464 0.0840686 -0.011563344 0.05039281
0.049231485 -0.06781634 -0.019129476 -0.047164 0.061184723 0.05581151 -0.050657377 0.013694286
-0.057169527 -0.009882987 0.028451944 -0.035405837 -0.058169223 -0.070605315 0.038376693 -0.054456215
0.0055985614 0.044469878 0.014342301 -0.03143959 -0.029033687 0.053824984 -0.02558433 -0.026786692
0.0073104575 -0.021278422 0.03380718 0.010273285 -0.061319686 -0.034876447 0.008135348 0.065063745
0.0619265 0.034190625 0.00041069835 -0.037583116 -0.042662818 0.06658181 -0.026334673 0.066713154
-0.003030749 0.0031802908 -0.028681846 0.007335579 0.0039050854 0.020501986 -0.016814407 0.03914304
0.0010015368 -0.04715628 0.011790518 -0.010102529 0.048546337 -0.021201102 -0.05766806 -0.06330796
0.0010353923 -0.06106623 0.033627912 0.058769844 -0.061783966 0.011265662 0.04854008 -0.052885253
0.06422011 0.006707834 0.05471663 -0.07030529 -0.0047899485 -0.024604352 0.058437016 -0.030451672
-0.02018426 -0.05560518 0.017586488 -0.020036234 -0.040952664 -0.011559702 -0.052754395 -0.05400308
-0.05505865 0.003464531 0.053979117 0.04733316 0.03855341 -0.065683804 -0.036016673 -0.04706851
0.03036442 -0.0044569746 0.022006646 0.030806676 0.005742342 0.002381261 0.016468313 -0.020767901
-0.048173517 -0.05892604 -0.06306652 0.03700147 0.026969835 0.045621417 -0.040927883 0.050778627
0.074286304 0.09343435 -0.010083621 -0.0025912079 0.0745861 0.08284804 -0.0007744945 -0.04875646
-0.03912089 0.017736517 0.034496672 0.033746064 0.0011351561 0.036863796 0.0355718 -0.032070376
-0.06781307 -0.007106288 0.05988686 -0.043179896 0.07665228 0.008971941 -0.07083154 -0.068782866
-0.071320884 0.070851766 0.018261302 0.03995066 -0.03414056 -0.06853846 -0.053238064 0.027262032
-0.03345985 -0.008855543 0.035050046 0.06400327 -0.017879738 -0.005261109 0.08002932 0.038365424
0.014801772 0.075620756 -0.046286233 0.067097835 0.0057322457 0.0013260903 -0.051373616 -0.06570494
-0.030762149 -0.053372823 0.0332075 0.01482696 0.0148052275 0.0077748178 -0.061320066 -0.0060818996
0.050643068 0.024397235 0.062027168 -0.044885892 -0.045095287 0.01823059 -0.024482733 0.02712434
0.012242653 -0.01393491 -0.06918979 0.008200146 -0.053751387 -0.01592021 -0.06962215 0.055282697
-0.017459236 0.07313864 0.06549113 -0.025738535 -0.060194984 -0.05819803 0.05462572 -0.020063128
0.05384656 0.0061379373 -0.07161585 -0.013148505 -0.005898158 -0.029061193 0.07381609 -0.0070568942
-0.048919044 -0.0425636 0.014714892 -0.0660143 0.004005475 0.036751688 -0.005642101 -0.057139974
-0.05041031 -0.026958138 0.052817747 0.057165027 0.0067689866 0.005317621 -0.04244674 0.03719692
-0.05850701 0.049639784 -0.04004359 0.063085124 -0.016253693 -0.04644458 -0.010980528 -0.0027449876
00000000: 5ad9 5dbd 600c 853d cbb0 663d bed2 6c3c
00000010: 437b 9b3d 62f4 a33d d9f2 943d ff61 9a3c
00000020: 8d70 38bd 1842 2a3c a6e6 9b3a 6b7c 893d
00000030: bb56 82bd c5fb 2f3d db7e 47bd cb27 923c
00000040: ed84 5dbd d074 29bc e20f 223c 4637 553d
00000050: 5861 19bc 3812 2d3c 8c08 e0bc 981d 5d3d
00000060: b32e 323d 8ba8 82bd c4b2 7dbd 1d46 853d
00000070: a1ae e4bb 6667 ccbb e557 0e3d 447f 17bd
00000080: f273 f5bc 702e cfbb 3101 91bd 10cf 963b
00000090: 133e 093d 282c ac3d 2e74 3dbc b168 4e3d
000000a0: f4a6 493d 4be3 8abd 6bb5 9cbc 0a2f 41bd
000000b0: d59c 7a3d 9c9a 643d 1c7e 4fbd 005e 603c
000000c0: 982a 6abd 40ec 21bc 0d14 e93c b605 11bd
000000d0: da42 6ebd 8599 90bd e130 1d3d 7b0d 5fbd
000000e0: 2374 b73b 0c26 363d f8fb 6a3c cdc6 00bd
000000f0: 0ed8 edbc 9677 5c3d 3b96 d1bc c46f dbbc
00000100: 908c ef3b 1650 aebc 6679 0a3d 4851 283c
00000110: 5a2a 7bbd 9bda 0ebd 1f4a 053c 2440 853d
00000120: a4a6 7d3d 780b 0c3d 0053 d739 c1f0 19bd
00000130: 35bf 2ebd 0b5c 883d d0bb d7bc e8a0 883d
00000140: 889f 46bb 6d6c 503b 31f6 eabc 4c5f f03b
00000150: 76ec 7f3b c8f3 a73c 5ebe 89bc 7454 203d
00000160: 0046 833a f226 41bd 042d 413c 1485 25bc
00000170: 86d8 463d efad adbc 5835 6cbd 9ba7 81bd
00000180: 00b6 873a 9520 7abd 6cbd 093d a6b8 703d
00000190: 2f11 7dbd 9c93 383c f7d1 463d 359e 58bd
000001a0: d585 833d 64cd db3b 8c1e 603d 38fc 8fbd
000001b0: 00f5 9cbb 118f c9bc a75b 6f3d c975 f9bc
000001c0: 7659 a5bc 42c2 63bd 8a11 903c 0723 a4bc
000001d0: fbbd 27bd e864 3dbc fe14 58bd 5532 5dbd
000001e0: 2e85 61bd 2f0d 633b 3519 5d3d 6ae0 413d
000001f0: 2eea 1d3d 3b85 86bd 3886 13bd e9ca 40bd
00000200: cebe f83c d00b 92bb 4847 b43c 485e fc3c
00000210: 422a bc3b ee0e 1c3b 8ee8 863c 7221 aabc
00000220: 9851 45bd 6e5c 71bd 0529 81bd da8e 173d
00000230: d8ef dc3c 86dd 3a3d ffa3 27bd 40fd 4f3d
00000240: 6b23 983d 825a bf3d c635 25bc 41d1 29bb
00000250: 99c0 983d 3cac a93d 7207 4bba dbb4 47bd
00000260: 3a3d 20bd 2c4c 913c 624c 0d3d 5039 0a3d
00000270: 85c9 943a 7efe 163d bcb3 113d 3a5c 03bd
00000280: 94e1 8abd dddb e8bb ed4b 753d 67dd 30bd
00000290: dffb 9c3d 0cff 123c 2010 91bd 08de 8cbd
000002a0: af10 92bd bb1a 913d ba98 953c 4ea3 233d
000002b0: f9d6 0bbd e45d 8cbd 2810 5abd a054 df3c
000002c0: 320d 09bd d716 11bc a390 0f3d 2514 833d
000002d0: 8778 92bc 6265 acbb 6ae6 a33d 1025 1d3d
000002e0: 2283 723c 0edf 9a3d a296 3dbd 976a 893d
000002f0: 90d5 bb3b 35d0 ad3a 246d 52bd 5090 86bd
00000300: e700 fcbc 769d 5abd 9604 083d c7ec 723c
00000310: a091 723c e6c3 fe3b c02a 7bbd ac4a c7bb
00000320: 1b6f 4f3d b6dc c73c 3310 7e3d 45da 37bd
00000330: d6b5 38bd 5158 953c 0390 c8bc dd33 de3c
00000340: 6995 483c 404f 64bc 60b3 8dbd e859 063c
00000350: 6a2a 5cbd 1a6b 82bc 0f96 8ebd 1c70 623d
00000360: ac06 8fbc b6c9 953d 3720 863d 9fd9 d2bc
00000370: 048f 76bd 0f61 6ebd 38bf 5f3d 6e5b a4bc
00000380: 368e 5c3d c020 c93b 55ab 92bd d46c 57bc
00000390: 5645 c1bb bd11 eebc e42c 973d 853d e7bb
000003a0: 565f 48bd 2b57 2ebd bb16 713c 8132 87bd
000003b0: 5c40 833b f088 163d 60e1 b8bb 9b0b 6abd
000003c0: 0b7b 4ebd 50d7 dcbc 6c57 583d e025 6a3d
000003d0: 60ce dd3b 703f ae3b a2dc 2dbd cc5b 183d
000003e0: 0ca5 6fbd 1653 4b3d bf04 24bd c632 813d
000003f0: 7726 85bc ac3c 3ebd ace7 33bc 40e5 33bb

layer2.0.bias f4 [128]
0.06918402 -0.024670893 0.0035810925 0.019299503 0.007956044 -0.029818878 -0.045600943 -0.007879216
-0.011731114 -0.0767663 0.06788352 -0.071201235 -0.07035529 0.05755459 0.0076973108 0.047928993
0.025337398 0.069631696 -0.003654702 -0.015660085 0.0023288298 0.06498549 -0.04574853 -0.018664617
0.05118213 0.022321707 -0.031055387 -0.029180313 0.008993983 -0.048814856 -0.04396733 -0.07000899
-0.012156924 -0.033626847 0.051523637 0.022577636 0.060136136 -0.06580428 -0.06426966 -0.028569762
-0.029753659 0.031850114 0.029877517 0.036716662 0.01992472 -0.07034706 -0.025059696 0.023252152
0.036782127 0.04516542 0.041047316 -0.06540182 0.014770245 -0.0026943123 0.01773823 -0.008277269
-0.04690234 0.05831552 -0.06495816 0.023129767 -0.0025702757 -0.06732488 -0.012561692 -0.061236266
0.010376393 0.018792303 0.07250142 -0.038201325 -0.057640746 0.0156781 -0.06514426 -0.058565795
0.021188604 0.04283678 -0.016909353 0.03987606 0.05591973 -0.03118836 -0.05032459 0.03568414
0.0064451857 -0.053921122 -0.06623373 0.018658523 -0.010608554 -0.039197464 0.0031221188 0.04529537
0.037923764 0.03815376 0.04148904 0.052792303 0.006614162 0.041105736 0.034606 0.04597149
0.038124565 -0.012255535 -0.07981888 -0.046191107 0.0025131558 -0.05275608 -0.047744907 0.035292
-0.08649997 -0.015791466 -0.05012415 -0.044432864 -0.034632374 -0.04966215 -0.018308546 0.0057417825
0.040512905 -0.0015388774 0.0014558912 0.052674245 -0.04431426 0.027225027 -0.017392205 -0.003933949
-0.038932573 0.0056657973 -0.03114971 0.03021321 0.073781595 -0.005535366 -0.008644436 0.025546448
00000000: 5ab0 8d3d 9d1a cabc c3b0 6a3b fe19 9e3c
00000010: 115a 023c b846 f4bc 0ec8 3abd d417 01bc
00000020: dc33 40bc a637 9dbd 8406 8b3d f4d1 91bd
00000030: 6f16 90bd 5dbe 6b3d b939 fc3b 3151 443d
00000040: 6090 cf3c 109b 8e3d ba83 6fbb 9449 80bc
00000050: 489f 183b 1d17 853d d062 3bbd 8ae6 98bc
00000060: 5aa4 513d 03dc b63c de67 febc 8d0b efbc
00000070: 805b 133c 16f2 47bd 1617 34bd e060 8fbd
00000080: d62d 47bc 4ebc 09bd 730a 533d bcf4 b83c
00000090: 4f51 763d 65c4 86bd d09f 83bd 220b eabc
000000a0: f2bd f3bc 4475 023d b2c1 f43c 3664 163d
000000b0: 2b39 a33c 1f12 90bd fe49 cdbc 4c7b be3c
000000c0: dba8 163d 60ff 383d 3b21 283d 64f1 85bd
000000d0: e6fe 713c 0f93 30bb c44f 913c 629d 07bc
000000e0: ab1c 40bd 41dc 6e3d c908 85bd a37a bd3c
000000f0: 1272 28bb a0e1 89bd 8ecf 4dbc e1d2 7abd
00000100: bf01 2a3c 51f2 993c a07b 943d fe78 1cbd
00000110: b418 6cbd 5c6f 803c 5b6a 85bd b0e2 6fbd
00000120: b993 ad3c 9f75 2f3d 7c85 8abc 1455 233d
00000130: 160c 653d bb7e ffbc 2821 4ebd 8829 123d
00000140: 2332 d33b 65dc 5cbd 8da5 87bd c2d9 983c
00000150: 80cf 2dbc 858d 20bd 769c 4c3b a387 393d
00000160: f355 1b3d 1e47 1c3d 69f0 293d be3c 583d
00000170: 9dbb d83b 7d5e 283d 05bf 0d3d 9a4c 3c3d
00000180: 8128 1c3d 71cb 48bc 1578 a3bd e332 3dbd
00000190: c2b3 243b c216 58bd 2a90 43bd 588e 103d
000001a0: e526 b1bd 1b5d 81bc fb4e 4dbd 3cff 35bd
000001b0: adda 0dbd 8a6a 4bbd cefb 95bc 9025 bc3b
000001c0: dcf0 253d 28b4 c9ba 9ad3 be3a f3c0 573d
000001d0: df82 35bd 0507 df3c 197a 8ebc 5be8 80bb
000001e0: c377 1fbd 27a8 b93b ad2d ffbc b281 f73c
000001f0: ce1a 973d 0462 b5bb 64a1 0dbc c946 d13c

layer3.0.weight f4 [128, 128, 3]
-0.037930537 -0.050847903 -0.013523902 -0.0017330062 -0.044030342 0.027206218 -0.03790317 -0.010191219
-0.01043353 0.0235014 -0.052720167 -0.036260143 -0.038049955 -0.04149692 -0.048210602 0.01740066
-0.048250798 -0.010117449 -0.037188414 0.009154907 0.017182752 -0.036068644 0.04362573 0.015089263
-0.010836125 -0.017147519 -0.029098691 0.029369596 0.02953024 -0.009089627 0.0046399455 0.020276371
0.046306826 0.01583942 0.011372629 0.04364655 -0.04613773 0.03188548 0.02696981 0.010320299
-0.027086712 -0.021017749 -0.022429476 -0.025885409 -0.025607575 -0.05041331 0.00957525 0.010639833
-0.0061343047 0.017596802 -0.03453257 0.029861724 -0.021610454 -0.03321294 -0.022293502 -0.037270136
-0.003929624 -0.04659898 0.040648617 -0.00073535275 0.023186572 0.004571406 0.009325981 0.03596831
-0.007904616 0.04081979 -0.0135907335 -0.03135126 -0.03394979 -0.015554547 -0.017875519 0.02378948
-0.03010552 0.011201452 -0.008318946 -0.016501723 -0.025879331 0.010224331 -0.038946897 -0.045071878
-0.04262721 -0.02503173 0.039458446 -0.0027288357 -0.041370496 0.013543756 -0.0063306703 -0.03960823
0.026699616 -0.006141979 0.025339419 -0.006398098 0.01204032 -0.022905806 -0.0108636385 0.007538095
0.042064637 0.013337538 0.0027864762 -0.053319767 -0.01857693 -0.033566236 -0.0060518594 -0.02327658
0.016898768 0.052418604 0.009661877 0.009800151 0.019239092 0.041261327 -0.023043692 0.006702578
0.015639793 -0.045330916 0.036390264 -0.02690948 0.024551304 0.014860838 0.0027745706 0.040135913
-0.040665824 -0.033507537 -0.010849746 0.003981463 0.00767346 -0.04386434 -0.034331795 -0.042300906
0.00603757 0.015110179 -0.013017987 0.013484965 -0.024807055 0.03291124 -0.014808472 0.0039385334
-0.058566004 0.046105687 0.042242825 -0.037363596 -0.036774363 -0.024056634 -0.0012147428 0.0054590623
-0.0023703307 -0.041889306 0.040089026 0.005209937 -0.012556629 -0.041333534 -0.014496007 -0.039817233
-0.032851323 -0.0518081 0.021405894 -0.0014237533 0.031526197 -0.011386414 0.015200858 -0.033746477
0.05336019 0.029277662 -0.036851898 0.004750966 -0.027804337 -0.022076556 0.006232025 0.0044171014
-0.050988078 -0.04710758 0.037584316 0.033054 0.006658829 0.046826642 -0.028486611 0.018318161
-0.018359136 -0.054772325 -0.03021844 -0.018880943 -0.0026147089 -0.009110639 0.04327539 -0.03913775
-0.0525838 -0.010703298 0.025250508 0.03328938 -0.010022535 -0.04317574 0.007676313 -0.036586728
0.042105407 -0.0421513 -0.03716964 0.02414844 -0.016631648 0.036159728 0.032262105 0.007025554
-0.05242578 0.02066532 -0.0120117385 0.027930412 -0.03787916 0.005482521 -0.0015730131 0.008919111
-0.014611174 -0.032680027 0.019268567 0.006348213 -0.038923085 -0.037324473 -0.038706254 -0.0051436396
-0.046275478 -0.02029343 0.012010882 0.033858836 0.021248555 0.030698488 -0.015901987 -0.037290927
0.007905458 0.03150425 -0.021723552 0.02672419 0.04607434 0.0059638172 -0.020337371 0.040264975
-0.024628846 -0.010370619 0.01869864 -0.035263017 -0.011278918 -0.03579091 0.034933075 -0.00034282645
-0.016685719 0.021996686 -0.026919678 0.012215452 0.04498457 -0.04832307 -0.026565498 -0.036006182
-0.047889333 -0.04517613 -0.042612635 0.004012776 -0.016550433 -0.020477248 -0.013182185 -0.026948117
00000000: 0d5d 1bbd e445 50bd 5b93 5dbc 0a26 e3ba
00000010: 2959 34bd 93df de3c 5b40 1bbd 12f9 26bc
00000020: 66f1 2abc 0286 c03c 1af1 57bd 8485 14bd
00000030: 45da 1bbd adf8 29bd 7b78 45bd d48b 8e3c
00000040: a1a2 45bd a8c3 25bc e152 18bd 77fe 153c
00000050: d8c2 8c3c b7bc 13bd e5b0 323d f538 773c
00000060: 018a 31bc f478 8cbc 6160 eebc 8298 f03c
00000070: 67e9 f13c a9ec 14bc af0a 983b a21a a63c
00000080: 3aac 3d3d acc1 813c 4354 3a3c bac6 323d
00000090: ebfa 3cbd 599a 023d caef dc3c 7916 293c
000000a0: f4e4 ddbc 6a2d acbc 05be b7bc a30d d4bc
000000b0: fac6 d1bc 307e 4ebd 82e1 1c3c b252 2e3c
000000c0: 4702 c9bb 2b27 903c 0672 0dbd 93a0 f43c
000000d0: 6808 b1bc 4b0a 08bd dda0 b6bc 92a8 18bd
000000e0: 13c4 80bb 92de 3ebd 2a7f 263d b0c4 40ba
000000f0: c4f1 bd3c bccb 953b 00cc 183c 8253 133d
00000100: 5d82 01bc a732 273d abab 5ebc 2e6a 00bd
00000110: ef0e 0bbd 80d8 7ebc ae6f 92bc 28e2 c23c
00000120: da9f f6bc 4c86 373c 304c 08bc 9f2e 87bc
00000130: e400 d4bc f483 273c c886 1fbd 4a9d 38bd
00000140: df99 2ebd 580f cdbc 2e9f 213d 44d6 32bb
00000150: 1c74 29bd a1e6 5d3c 8371 cfbb 3d3c 22bd
00000160: 27b9 da3c a742 c9bb 9d94 cf3c 23a7 d1bb
00000170: c344 453c f5a4 bbbc 67fd 31bc 2002 f73b
00000180: f84b 2c3d b085 5a3c 509d 363b d465 5abd
00000190: a52e 98bc c07c 09bd ad4e c6bb 87ae bebc
000001a0: 496f 8a3c e4b4 563d d94c 1e3c d090 203c
000001b0: 4d9b 9d3c a301 293d 20c6 bcbc 4da1 db3b
000001c0: 061f 803c e9ac 39bd f50d 153d 4571 dcbc
000001d0: d11f c93c df7a 733c 92d5 353b 8e65 243d
000001e0: 3591 26bd 333f 09bd 22c3 31bc ef76 823b
000001f0: a671 fb3b 18ab 33bd 7f9f 0cbd b743 2dbd
00000200: cfd6 c53b af90 773c 6549 55bc 0bf0 5c3c
00000210: 2a38 cbbc f0cd 063d 3c9f 72bc d00e 813b
00000220: e8e2 6fbd 51d9 3c3d d006 2d3d 920a 19bd
00000230: b7a0 16bd 6b12 c5bc 0138 9fba efe1 b23b
00000240: 8d57 1bbb 1f94 2bbd 6434 243d 1fb8 aa3b
00000250: 52ba 4dbc 5a4d 29bd a980 6dbc 6517 23bd
00000260: 1c8f 06bd bb34 54bd 6a5b af3c 3c9d baba
00000270: 9d21 013d 158e 3abc 050d 793c bf39 0abd
00000280: 3790 5a3d b5d7 ef3c 04f2 16bd fead 9b3b
00000290: ecc5 e3bc e5d9 b4bc 0436 cc3b 55bd 903b
000002a0: e0d8 50bd e1f3 40bd 03f2 193d a263 073d
000002b0: 4e32 da3b 4bcd 3f3d c15c e9bc f80f 963c
000002c0: e665 96bc f258 60bd a98c f7bc 35ac 9abc
000002d0: 895b 2bbb ca44 15bc 8941 313d e84e 20bd
000002e0: 1c62 57bd e35c 2fbc 27da ce3c 725a 083d
000002f0: 8f35 24bc 0bd9 30bd 9589 fb3b f7db 15bd
00000300: b876 2c3d d7a6 2cbd 313f 18bd f3d2 c53c
00000310: 183f 88bc 391c 143d 4525 043d 9e36 e63b
00000320: 6abc 56bd 514a a93c e2cc 44bc 52ce e43c
00000330: 2e27 1bbd b8a6 b33b 902d ceba 7721 123c
00000340: b563 6fbc 7edb 05bd 1dd9 9d3c ac04 d03b
00000350: d06d 1fbd 8ce1 18bd 738a 1ebd fa8b a8bb
00000360: 5b8b 3dbd 683e a6bc 4ac9 443c 90af 0a3d
00000370: 7311 ae3c 657b fb3c e244 82bc 5fbe 18bd
00000380: e585 013c 9a0a 013d 97f5 b1bc b0ec da3c
00000390: 72b8 3c3d 206c c33b 8f9a a6bc e3ec 243d
000003a0: 6fc2 c9bc 87e9 29bc e42d 993c f46f 10bd
000003b0: 36cb 38bc 7d99 12bd fc15 0f3d 63bd b3b9
000003c0: 7db0 88bc 6532 b43c a886 dcbc 5223 483c
000003d0: be41 383d 69ee 45bd e39f d9bc 387b 13bd
000003e0: 9b27 44bd 9b0a 39bd 968a 2ebd 9b7d 833b
000003f0: c694 87bc e7bf a7bc 17fa 57bc 4cc2 dcbc

layer3.0.bias f4 [128]
-0.0002870541 0.0063016047 0.025868101 0.0055758213 -0.05444441 -0.020250978 -0.017233262 0.007654536
0.03774371 -0.03262495 -0.015400901 0.027907258 -0.06118906 -0.0070855245 -0.040594354 -0.018857216
-0.006172651 -0.017653137 -0.017803114 -0.006312158 0.019196996 -0.040032033 0.015831152 -0.016074238
-0.041815788 0.02415966 0.0107881855 -0.00556979 0.038958732 -0.045225326 0.036339786 0.042268235
-0.016899666 -0.002166844 0.024473932 0.015086231 0.017471874 0.036297303 0.016078267 0.018786488
0.03980631 -0.019203683 0.0017536508 -0.02953496 -0.0091403285 0.04792813 -0.020010822 -0.048890717
0.026906284 -0.01644562 0.03370114 -0.004866323 0.014001041 0.02726458 0.029800138 0.042031903
0.00013842124 0.011963316 -0.009947385 -0.03171847 -0.035730943 0.029597051 0.0213685 0.008871528
-0.015713764 -0.062198803 -0.041481934 0.028343618 0.012861133 0.04723018 -0.010504411 0.024612704
0.0067969873 -0.02559649 0.019578032 -0.023720661 0.02100865 -0.05612048 0.01603364 0.04498105
-0.022441825 0.03251256 0.001187841 0.05204778 -0.030807354 -0.02832614 -0.034240216 0.007813081
0.0020458694 0.020083033 -0.037920915 0.023987563 0.004604156 0.0036339639 -0.025347268 -0.0053320806
-0.029918224 0.046312172 0.014883004 0.009873696 0.043810047 -0.016800094 0.0044622887 -0.027188594
0.023403862 -0.020488126 -0.016118612 -0.03457273 -0.02625542 -0.047660798 0.0042330115 0.029610856
-0.015727792 -0.04127476 -0.023539515 0.0135832 0.045135275 0.042113278 0.021107588 0.01528102
-0.018117202 0.009717459 0.0026968068 0.010803071 -0.0069803875 -0.049703494 0.03778723 -0.023054821
00000000: c07f 96b9 b17d ce3b 57e9 d33c 61b5 b63b
00000010: 1a01 5fbd 61e5 a5bc c52c 8dbc e7d2 fa3b
00000020: 2699 1a3d bda1 05bd 1054 7cbc c39d e43c
00000030: 61a1 7abd b02d e8bb 4446 26bd 737a 9abc
00000040: f343 cabb 509d 90bc d6d7 91bc 38d6 cebb
00000050: 0543 9d3c a1f8 23bd 55b0 813c 1fae 83bc
00000060: 0847 2bbd 7bea c53c eec0 303c c982 b6bb
00000070: 3193 1f3d 313e 39bd 07d9 143d 7521 2d3d
00000080: 2b71 8abc 9c01 0ebb 8e7d c83c 3d2c 773c
00000090: 2d21 8f3c 7bac 143d 92b6 833c 1fe6 993c
000000a0: f10b 233d 0b51 9dbc c2da e53a 4df3 f1bc
000000b0: 51c1 15bc 4950 443d bced a3bc a241 48bd
000000c0: 916a dc3c f7b8 86bc 350a 0a3d ad75 9fbb
000000d0: 9f64 653c f859 df3c 6b1f f43c a529 2c3d
000000e0: 2b25 1139 c901 443c 5bfa 22bc 3aeb 01bd
000000f0: 9c5a 12bd 8475 f23c fe0c af3c e359 113c
00000100: 27ba 80bc 2cc4 7ebd f6e8 29bd e030 e83c
00000110: 80b7 523c 6f74 413d b11a 2cbc 95a0 c93c
00000120: 43b9 de3b bbaf d1bc 1c62 a03c d551 c2bc
00000130: 551a ac3c 97de 65bd fb58 833c 0d3e 383d
00000140: ebd7 b7bc e42b 053d 54b1 9b3a 0e30 553d
00000150: b45f fcbc 390c e8bc 783f 0cbd 7002 003c
00000160: fe13 063b 2c85 a43c f652 1bbd 9181 c43c
00000170: 76de 963b cc27 6e3b 13a5 cfbc bcb8 aebb
00000180: 1017 f5bc d5b1 3d3d d8d7 733c 48c5 213c
00000190: 2a72 333d 5aa0 89bc 6438 923b 9dba debc
000001a0: 75b9 bf3c b7d6 a7bc 2e0b 84bc 239c 0dbd
000001b0: 9b15 d7bc f837 43bd 13b5 8a3b 7792 f23c
000001c0: 92d7 80bc b90f 29bd f1d5 c0bc 128c 5e3c
000001d0: c4df 383d f97e 2c3d d2e9 ac3c 3e5d 7a3c
000001e0: 876a 94bc fa35 1f3c e9bc 303b 5dff 303c
000001f0: bcbb e4bb e495 4bbd c8c6 1a3d 77dd bcbc

layer4.weight_ih_l0 f4 [256, 128]
-0.0050077764 -0.008616997 0.07778283 -0.0005080385 -0.08132121 0.02109916 0.003103583 0.02539033
-0.019669622 0.106992505 0.027696567 0.008790331 0.055146445 -0.034571975 0.08340512 0.08652692
-0.03890206 0.10802018 0.11364218 -0.010397302 0.016541908 -0.08185631 -0.011507818 -0.07910881
-0.064986326 0.14481702 0.105686225 0.03509828 0.075942904 0.044374086 0.108093 0.17566054
0.084335275 0.059302732 0.07848705 -0.018323777 0.06149078 -0.04353494 0.03688023 0.015264906
-0.0052713132 0.0004372329 -0.097996525 0.036427256 0.0732526 -0.033683877 -0.09170093 -0.08481055
-0.024997525 0.05331082 -0.049068194 0.082014635 0.0073318193 -0.111446775 0.08149278 0.00984797
-0.041018184 -0.055692337 0.09765008 -0.05401817 -0.10158429 0.062516004 0.0145294415 -0.034001537
-0.021790737 0.008555266 -0.053302485 0.125502 0.10108133 0.14767459 0.07168936 0.07328185
-0.0883089 0.13015945 0.10187567 -0.04930413 -0.10993192 -0.09244653 0.072210565 0.027603792
-0.067134276 0.030631596 -0.010948506 0.07004491 -0.012860159 0.07534289 -0.116575226 0.06421739
-0.11106589 0.08364404 -0.089486085 0.02997469 0.082956135 0.040001694 0.044623464 0.08375536
0.046959125 0.13793425 0.101699814 0.12578428 0.011686974 -0.017603137 0.060209777 0.045772344
0.018101765 0.061565842 0.057736617 -0.0047234814 -0.09800659 0.09726831 -0.020949699 0.12899646
-0.028031731 -0.067441314 0.13943377 0.033504676 0.060139332 0.027869351 -0.001331408 0.102187954
0.0439239 0.12789664 -0.080761775 -0.074247055 0.052154087 0.09295985 0.05123182 -0.019919176
0.109944426 0.065796375 0.15625611 0.03793709 -0.07539041 0.13973391 0.13239361 0.04835928
0.015685054 0.10371436 0.00856259 0.1019222 0.14745882 0.1209892 0.020999996 0.07577143
-0.07751479 0.026414128 0.0065177856 0.03345813 -0.065138854 0.05580726 -0.05406919 9.537226e-05
-0.008502709 -0.107627474 0.050051585 -0.0421098 0.06937808 -0.050057396 -0.017360281 0.075702295
0.104626596 -0.01397405 0.028104164 -0.09581125 -0.05314717 -0.100672826 -0.041734148 0.009329772
-0.037072323 -0.07488291 0.09718622 0.0076135728 0.019043026 -0.028350687 -0.019063976 0.017539734
0.09576919 -0.0906142 -0.06535642 -0.03228767 0.067663305 -0.036067247 -0.006684277 0.09580659
0.08673895 -0.031738486 0.012135192 -0.020952303 -0.053336587 0.06654127 -0.08582142 -0.06947123
-0.0057732547 -0.07753163 -0.10574693 -0.04293433 0.09758622 -0.0714952 -0.006548729 -0.056829
-0.039704606 0.09251987 0.06921624 0.028518682 -0.09199908 -0.029645938 0.055505667 -0.10357034
0.08136576 -0.0027957151 -0.024633473 0.11931226 0.10154981 0.040003043 0.08195004 0.108474135
0.07893002 0.1465859 -0.048775915 -0.030041503 0.12637974 0.037759956 0.0963935 0.07833043
0.1328298 0.0021544679 0.13416353 -0.067674674 0.017149316 -0.09269176 -0.06170731 0.0890599
-0.090497315 0.05592505 0.11160884 -0.034857616 -0.07610937 -0.008001787 0.13889794 0.029345581
-0.045363605 0.117943905 -0.06049008 0.02569561 0.06877607 0.12455483 -0.112164386 0.1423114
-0.013632748 0.0010628654 -0.05687501 -0.008656318 0.14814104 -0.012927101 0.029540375 -0.0022223508
00000000: 4618 a4bb 4e2e 0dbc 9b4c 9f3d e32d 05ba
00000010: bc8b a6bd 25d8 ac3c 7b65 4b3b 62ff cf3c
00000020: 3022 a1bc e31e db3d e9e3 e23c 5205 103c
00000030: 3de1 613d 589b 0dbd 4ed0 aa3d 0735 b13d
00000040: c457 1fbd af39 dd3d 3bbd e83d 7259 2abc
00000050: e582 873c 48a4 a7bd 498b 3cbc cd03 a2bd
00000060: 8d17 85bd ea4a 143e 0572 d83d 37c3 0f3d
00000070: f487 9b3d 9ac1 353d dd5f dd3d 5be0 333e
00000080: f9b7 ac3d 6ce7 723d d2bd a03d bf1b 96bc
00000090: c2dd 7b3d b151 32bd b90f 173d a819 7a3c
000000a0: fbba acbb 683c e539 67b2 c8bd bf34 153d
000000b0: 7605 963d 1bf8 09bd b2cd bbbd 27b1 adbd
000000c0: 9cc7 ccbc 725c 5a3d bbfb 48bd 4af7 a73d
000000d0: c23f f03b 353e e4bd b0e5 a63d 6159 213c
000000e0: af02 28bd a61d 64bd c4fc c73d 2842 5dbd
000000f0: 6d0b d0bd 6408 803d e50c 6e3c 3245 0bbd
00000100: 7d82 b2bc 632b 0c3c b553 5abd 9983 003e
00000110: ba03 cf3d 0238 173e dfd1 923d cb14 963d
00000120: 4cdb b4bd 8548 053e 31a4 d03d 21f3 49bd
00000130: fd23 e1bd 9b54 bdbd 22e3 933d 5921 e23c
00000140: b27d 89bd 1def fa3c 5d61 33bc b573 8f3d
00000150: 6bb3 52bc 604d 9a3d febe eebd 6884 833d
00000160: 8376 e3bd 914d ab3d 7b44 b7bd 7b8d f53c
00000170: e8e4 a93d d1d8 233d 18c7 363d ee87 ab3d
00000180: 3658 403d a33e 0d3e fe47 d03d 98cd 003e
00000190: b97a 3f3c 7434 90bc 879e 763d c87b 3b3d
000001a0: 274a 943c 772c 7c3d 3b7d 6c3d 6fc7 9abb
000001b0: aeb7 c8bd 9c34 c73d b49e abbc a617 043e
000001c0: cda2 e5bc ac1e 8abd bac7 0e3e 333c 093d
000001d0: a954 763d 444e e43c a482 aeba eb47 d13d
000001e0: 8ce9 333d 56f7 023e 6e66 a5bd d70e 98bd
000001f0: 869f 553d bc61 be3d 75d8 513d 8a2d a3bc
00000200: 8b2a e13d 40c0 863d 9a01 203e ec63 1b3d
00000210: 4a66 9abd 6816 0f3e 3192 073e 6114 463d
00000220: f17d 803c 3268 d43d 1b4a 0c3c 96bc d03d
00000230: 72ff 163e 30c9 f73d 2f08 ac3c 0d2e 9b3d
00000240: 13c0 9ebd 7162 d83c 2693 d53b 640b 093d
00000250: 8567 85bd 2796 643d a877 5dbd 9802 c838
00000260: f24e 0bbc cb6b dcbd e402 4d3d 537b 2cbd
00000270: 1816 8e3d fc08 4dbd 2637 8ebc ce09 9b3d
00000280: 7846 d63d 6af3 64bc b43a e63c b038 c4bd
00000290: d9b0 59bd 8e2d cebd 6df1 2abd e6db 183c
000002a0: 26d9 17bd 365c 99bd 9209 c73d 477b f93b
000002b0: 1f00 9c3c b33f e8bc 0e2c 9cbc 7daf 8f3c
000002c0: a322 c43d f093 b9bd 96d9 85bd 1340 04bd
000002d0: 0f93 8a3d 40bb 13bd c807 dbbb 3f36 c43d
000002e0: 31a4 b13d 3700 02bd afd2 463c 2aa4 abbc
000002f0: 7777 5abd ca46 883d 24c3 afbd ef46 8ebd
00000300: 922d bdbb e7c8 9ebd d991 d8bd e8db 2fbd
00000310: 49db c73d 136c 92bd b896 d6bb 87c5 68bd
00000320: 4ca1 22bd 0f7b bd3d 3ec1 8d3d 03a0 e93c
00000330: 036a bcbd 0adc f2bc e959 633d b01c d4bd
00000340: 17a3 a63d 5138 37bb 23cc c9bc fc59 f43d
00000350: 59f9 cf3d 3bda 233d 6cd5 a73d b027 de3d
00000360: 10a6 a13d 9d1a 163e 41c9 47bd 9919 f6bc
00000370: b169 013e 2faa 1a3d f569 c53d b46b a03d
00000380: 8904 083e f931 0d3b 2a62 093e 0599 8abd
00000390: b97c 8c3c 2dd5 bdbd cec0 7cbd 0965 b63d
000003a0: a856 b9bd aa11 653d 2d93 e43d dcc6 0ebd
000003b0: 3bdf 9bbd ed19 03bc 433b 0e3e 2566 f03c
000003c0: 30cf 39bd 938c f13d 72c4 77bd 9a7f d23c
000003d0: 78da 8c3d 9a16 ff3d 71b6 e5bd 14ba 113e
000003e0: e45b 5fbc d84f 8b3a c5f5 68bd 3bd3 0dbc
000003f0: 49b2 173e 31cc 53bc a8fe f13c dca4 11bb

layer4.weight_hh_l0 f4 [256, 64]
0.017540932 -0.031744964 -0.10482702 0.048890457 -0.04409614 0.075961635 -0.1567493 -0.10541218
-0.029039683 -0.15106739 -0.0742544 0.11688569 0.08113032 0.13621292 0.11571624 0.042974755
0.12357738 0.08540077 0.027026612 -0.12411079 -0.12737516 -0.022269748 0.025152754 0.07624957
0.09044495 -0.068384394 -0.057818208 0.08930761 -0.064305216 0.1359107 -0.02190087 -0.10003281
-0.04413243 0.015023359 -0.009768185 -0.111337826 -0.090836294 -0.049079545 0.03634706 0.06369968
-0.09494529 -0.042937033 -0.045041543 -0.041700404 0.11524873 0.029655822 -0.03851332 -0.008026116
-0.016991252 -0.025888689 0.056944065 0.11378445 -0.09624026 0.0070597944 0.0447392 -0.04264321
-0.0047676787 -0.084571905 0.05092482 -0.06620423 -0.07635579 -0.09226628 0.023376377 -0.032077014
-0.03588481 -0.121268936 -0.0474999 -0.053026054 0.0051941285 -0.11288342 0.11512752 -0.07772071
-0.0002152547 0.08969625 0.0071515082 -0.026835889 0.07316742 -0.116811626 0.012583027 0.05873222
-0.11292885 0.06395802 -0.017021667 -0.09631648 0.027965777 0.09895619 0.13958795 0.031418465
0.1003525 -0.0052445033 0.09671496 0.08516462 0.07547708 0.07327787 -0.036940675 0.06456328
-0.085628055 -0.10182256 0.0950163 0.04237691 -0.10936384 -0.10501577 -0.066494584 0.09492434
-0.105939835 0.13134825 -0.06750102 -0.10654541 0.033372853 -0.016549913 -0.09609286 0.0025059208
0.09379432 -0.05869742 -0.04902022 -0.016706185 -0.09109732 0.055104487 -0.06408419 0.0026715917
-0.01699457 -0.031560827 0.08299797 -0.10569582 0.072722115 -0.14345515 -0.02624175 -0.008614963
0.10807965 0.12142709 0.10308778 -0.15698873 -0.037091576 -0.05448032 -0.06934276 -0.099414565
-0.002281761 0.07585398 -0.09647167 -0.0599664 -0.0860775 0.07205643 0.026815886 -0.1072011
0.013439377 0.07647035 0.102013454 -0.042479996 -0.0992922 0.1284031 0.06561385 0.013991774
0.112089 -0.09780189 -0.13366295 -0.06424896 0.03833369 0.15052825 -0.08039503 -0.10884096
0.10685545 0.10308514 -0.047713216 -0.124969736 0.12396688 0.05252797 0.08708884 0.049518526
0.09032672 -0.09404415 -0.09175613 -0.026578337 0.06079471 -0.051389262 0.011461998 0.06576662
-0.11785968 -0.07585545 -0.10584237 0.104493536 0.09177608 -0.08705655 -0.010845108 0.09268815
0.037500054 0.044340737 -0.08642451 0.035976633 -0.07622038 -0.039372195 -0.07451459 -0.08010214
-0.048806865 0.027943267 0.10199322 -0.026135681 -0.06312005 -0.07055932 -0.1052162 0.0088594025
0.09504215 0.13555737 -0.058839858 0.07075274 0.10346444 -0.028874578 -0.013424086 0.029766034
-0.012276737 0.051950373 0.03897152 -0.003626466 0.0930278 -0.0079950085 -0.046220638 -0.09521132
-0.0062237685 0.06549523 -0.04377601 0.026431467 -0.051450104 -0.01162551 0.100192204 -0.018793434
-0.09083935 0.0042645223 -0.02462881 -0.02076582 0.056766145 0.028711924 -0.053347792 -0.033709858
0.013289058 -0.07202617 -0.00017442253 -0.11315283 0.015931051 0.08196223 -0.10007555 0.016237624
0.07985764 0.12935123 0.05130851 0.05829858 0.1604184 -0.009751343 -0.011497979 -0.09280055
0.0115408525 -0.15972066 -0.098103054 0.08270457 0.03540719 0.04435463 -0.13295248 0.04616413
00000000: 00b2 8f3c 0207 02bd 8caf d6bd 5c41 483d
00000010: 279e 34bd c691 9b3d e382 20be 57e2 d7bd
00000020: a1e4 edbc 69b1 1abe b112 98bd c461 ef3d
00000030: a727 a63d 667b 0b3e a3fc ec3d 4c06 303d
00000040: 2316 fd3d 99e6 ae3d ea66 dd3c cc2d febd
00000050: a26e 02be 0c6f b6bc 260d ce3c bc28 9c3d
00000060: 343b b93d 1e0d 8cbd c9d2 6cbd e9e6 b63d
00000070: 74b2 83bd 2d2c 0b3e 7469 b3bc 00de ccbd
00000080: 35c4 34bd 8924 763c bd0a 20bc 1605 e4bd
00000090: 6108 babd a207 49bd a8e0 143d fa74 823d
000000a0: ad72 c2bd bede 2fbd 7b7d 38bd 0bce 2abd
000000b0: 8707 ec3d c4f0 f23c 25c0 1dbd f87f 03bc
000000c0: 3d31 8bbc 8414 d4bc 2e3e 693d d207 e93d
000000d0: 9d19 c5bd d955 e73b 7440 373d a6aa 2ebd
000000e0: 303a 9cbb 0934 adbd 8b96 503d 1596 87bd
000000f0: 6d60 9cbd 1af6 bcbd d17f bf3c 3063 03bd
00000100: f3fb 12bd d95b f8bd 418f 42bd d931 59bd
00000110: 8233 aa3b 6c2f e7bd fac7 eb3d 092c 9fbd
00000120: feb5 61b9 abb2 b73d 3357 ea3b f0d6 dbbc
00000130: cdd8 953d ef3a efbd 0a29 4e3c 3291 703d
00000140: 3e47 e7bd 6cfc 823d 0671 8bbc 9341 c5bd
00000150: 7c18 e53c 8ba9 ca3d 25f0 0e3e a6b0 003d
00000160: 9d85 cd3d 15da abbb 7e12 c63d ca6a ae3d
00000170: ba93 9a3d b512 963d 1b4f 17bd c139 843d
00000180: c35d afbd 5988 d0bd e897 c23d 6993 2d3d
00000190: 26fa dfbd 8212 d7bd 502e 88bd b167 c23d
000001a0: fcf6 d8bd 2880 063e fa3d 8abd 7b34 dabd
000001b0: f9b1 083d af93 87bc 55cc c4bd 603a 243b
000001c0: 3d17 c03d b56c 70bd 6dc9 48bd 69db 88bc
000001d0: 3b91 babd 3eb5 613d 923e 83bd df15 2f3b
000001e0: 3238 8bbc ed45 01bd d7fa a93d 0d77 d8bd
000001f0: 55ef 943d e8e5 12be f0f8 d6bc c625 0dbc
00000200: dd58 dd3d c4ae f83d b01f d33d a7c1 20be
00000210: 56ed 17bd c226 5fbd 9403 8ebd dd99 cbbd
00000220: 9989 15bb 5559 9b3d f092 c5bd 549f 75bd
00000230: 6649 b0bd 5292 933d fdac db3c 408c dbbd
00000240: d530 5c3c 7d9c 9c3d 6eec d03d 81ff 2dbd
00000250: b559 cbbd 1a7c 033e 8e60 863d c13d 653c
00000260: eb8e e53d 5b4c c8bd f1de 08be f594 83bd
00000270: ca03 1d3d 1424 1a3e 26a6 a4bd 02e8 debd
00000280: 08d7 da3d 4d1e d33d ef6e 43bd 22f0 ffbd
00000290: 59e2 fd3d 9227 573d a25b b23d f0d3 4a3d
000002a0: 37fd b83d 389a c0bd a3ea bbbd d0ba d9bc
000002b0: e003 793d 8c7d 52bd 1bcb 3b3c a6b0 863d
000002c0: 6a60 f1bd 1a5a 9bbd e2c3 d8bd b500 d63d
000002d0: 19f5 bb3d b44a b2bd aeaf 31bc 49d3 bd3d
000002e0: a899 193d a29e 353d 55ff b0bd 3c5c 133d
000002f0: 6e19 9cbd bd44 21bd 1b9b 98bd 970c a4bd
00000300: b5e9 47bd 47e9 e43c d2e1 d03d 7f1a d6bc
00000310: 1645 81bd 6881 90bd 977b d7bd 0727 113c
00000320: 75a5 c23d 8dcf 0a3e 1002 71bd d0e6 903d
00000330: 2ae5 d33d 618a ecbc b3f0 5bbc e6d7 f33c
00000340: 5e24 49bc eac9 543d 9aa0 1f3d 01aa 6dbb
00000350: 5c85 be3d 7ffd 02bc da51 3dbd 27fe c2bd
00000360: c1f0 cbbb 5d22 863d 794e 33bd ce86 d83c
00000370: 58bd 52bd ec78 3ebc 9231 cd3d b0f4 99bc
00000380: fb09 babd 68bd 8b3b 5cc2 c9bc 151d aabc
00000390: 9e83 683d 4535 eb3c 3783 5abd 5913 0abd
000003a0: 59ba 593c 7582 93bd 31e5 36b9 acbc e7bd
000003b0: d681 823c d0db a73d 69f4 ccbd c404 853c
000003c0: 678c a33d a674 043e df28 523d 7eca 6e3d
000003d0: b944 243e 19c4 1fbc 0562 3cbc 370e bebd
000003e0: d815 3d3c d08d 23be 41ea c8bd 0361 a93d
000003f0: 2107 113d 33ad 353d b224 08be 9916 3d3d

layer4.bias_ih_l0 f4 [256]
-0.026438244 0.016112568 -0.004691721 0.1205262 -0.092039034 -0.09715431 -0.028138462 -0.09329337
0.08616519 -0.10374202 -0.05586795 0.075084314 0.07643383 0.078097954 -0.0371435 0.021700308
-0.12297819 0.06762452 -0.04791426 -0.011578578 -0.06864306 0.0040293406 0.064319864 -0.071814105
0.06716668 0.10924414 0.07536523 0.07422421 0.09028177 0.08444484 0.035785377 -0.030295588
-0.021438664 0.048472222 0.017922416 -0.106962204 0.0033963183 -0.07984757 -0.12557839 0.008119472
0.08191106 -0.11568199 0.032239806 0.03214305 -0.0857921 -0.0045492984 -0.034455057 0.15073262
-0.0051212213 0.11829903 -0.024150897 0.0010902279 -0.047096238 0.0026464846 -0.082861215 -0.10787747
-0.0620602 0.073196664 -0.03316552 -0.07269198 0.021020124 0.08534183 0.022715313 0.092659906
0.06484934 0.08024733 0.06871867 0.07215771 0.117773235 0.061113052 -0.09166166 0.08865149
0.0045826063 -0.06233255 0.06437121 0.14487092 0.0111077 0.06619548 -0.038128834 0.10315102
0.104190215 0.07368286 -0.09877049 0.009116547 0.081862055 -0.033315513 0.11423923 -0.0387069
0.0990828 0.122469015 -0.05170424 0.08050183 -0.078930825 -0.06534063 -0.119572364 0.0014694158
0.124108836 0.021338044 0.025474966 -0.062113266 0.04802315 -0.09497378 0.02603489 -0.026315048
0.052100856 -0.087811254 -0.013522692 0.10462155 0.1042159 0.05701211 0.11661039 0.04788154
0.04412508 0.0142419655 0.115324184 -0.020465571 -0.008560861 -0.009341927 0.07640825 0.10328691
0.08183882 0.08813784 0.061739545 -0.034556292 -0.069492914 0.06971402 0.13279411 -0.078921415
0.069371276 -0.11924565 0.06331967 -0.09876479 0.039655477 -0.10370817 0.05091794 -0.021675816
0.05327062 -0.02204903 0.053213056 -0.1035032 0.066452175 -0.11911773 0.08286063 -0.069692
-0.07049405 -0.04330672 -0.08707824 0.029998116 -0.02090281 -0.00031098837 0.00848212 0.0668933
0.06291739 0.009700311 -0.059480358 0.06968655 -0.075749725 -0.103157334 0.024286557 -0.030612245
0.120634176 -0.07664149 -0.05370456 -0.10448578 -0.0240018 0.092174485 -0.050354764 0.063613266
0.03896703 0.013456066 0.08087237 0.110211045 0.11459661 0.05506122 -0.098246805 0.033883564
0.11057734 -0.04325374 0.07024529 -0.08766519 0.03045825 -0.0061826166 0.1262217 -0.086168796
-0.09603816 -0.11126231 -0.07651997 0.056801915 -0.04067428 0.026600879 0.1052668 0.027665459
0.09628276 0.11059368 0.11896572 -0.011914445 -0.037735745 -0.111597896 0.018517414 0.012206547
-0.013908743 -0.0065594777 -0.080782846 0.053802855 -0.048811607 -0.08326439 0.08713469 -0.012231386
0.13144907 0.10824512 0.10659899 -0.056386616 0.013220026 -0.012184943 0.050413895 0.14826247
0.046857506 0.015921354 -0.057835925 -0.025465826 -0.07198967 0.030021122 0.08149769 -0.09025802
0.065466486 -0.066263475 -0.0284897 -0.08254134 -0.05907947 -0.06261413 0.118377 0.02045156
-0.039169095 0.025455967 0.06025195 -0.027160265 0.10894008 -0.049068224 0.1511094 0.10837591
0.0931933 0.022235142 -0.05670722 0.1190043 -0.09646757 -0.0027890676 0.038516596 -0.09362156
0.10955514 -0.02062261 0.105784796 0.10386328 -0.08349904 0.021987531 0.02899579 0.042006787
00000000: 0495 d8bc 81fe 833c 02bd 99bb 71d6 f63d
00000010: f67e bcbd d7f8 c6bd a282 e6bc 9810 bfbd
00000020: 6077 b03d b276 d4bd cbd5 64bd cec5 993d
00000030: 5789 9c3d d2f1 9f3d c823 18bd d8c4 b13c
00000040: fddb fbbd b97e 8a3d be41 44bd 13b4 3dbc
00000050: bc94 8cbd 8f08 843b 22ba 833d 4613 93bd
00000060: af8e 893d 64bb df3d 1659 9a3d dd02 983d
00000070: a6e5 b83d 6bf1 ac3d b093 123d 742e f8bc
00000080: 23a0 afbc cf8a 463d 08d2 923c 000f dbbd
00000090: c494 5e3b 1f87 a3bd 9f97 00be 8907 053c
000000a0: fcc0 a73d aeea ecbd e30d 043d 6ea8 033d
000000b0: c5b3 afbd 4812 95bb bf20 0dbd a759 1a3e
000000c0: ebcf a7bb c346 f23d 1ad8 c5bc fae5 8e3a
000000d0: fce7 40bd a570 2d3b 24b3 a9bd ddee dcbd
000000e0: d632 7ebd 22e8 953d 91d8 07bd 88df 94bd
000000f0: 6532 ac3c b3c7 ae3d 7715 ba3c 7ac4 bd3d
00000100: bbcf 843d b658 a43d 60bc 8c3d 6cc7 933d
00000110: 1833 f13d ae51 7a3d 1cb9 bbbd ea8e b53d
00000120: b029 963b 6a50 7fbd 0ed5 833d 0b59 143e
00000130: 12fd 353c 7f91 873d fb2c 1cbd d840 d33d
00000140: ae61 d53d 0ae7 963d 2f48 cabd 925d 153c
00000150: 4ba7 a73d d975 08bd 42f6 e93d 208b 1ebd
00000160: eceb ca3d 09d1 fa3d d3c7 53bd 25de a43d
00000170: 7ca6 a1bd 4fd1 85bd 5be2 f4bd 6a99 c03a
00000180: c62c fe3d 1fcd ae3c e0b0 d03c 7b6a 7ebd
00000190: ecb3 443d 9d81 c2bd 1f47 d53c a892 d7bc
000001a0: b567 553d 63d6 b3bd 488e 5dbc d343 d63d
000001b0: 256f d53d 8885 693d 6ed1 ee3d 6f1f 443d
000001c0: 80bc 343d 2257 693c 162f ec3d 6aa7 a7bc
000001d0: db42 0cbc e20e 19bc ee7b 9c3d 1688 d33d
000001e0: 1c9b a73d 9d81 b43d 9be2 7c3d e68a 0dbd
000001f0: 4d52 8ebd 39c6 8e3d 2efb 073e 8da1 a1bd
00000200: 8712 8e3d 1037 f4bd bead 813d 3245 cabd
00000210: c86d 223d f364 d4bd 548f 503d 7b91 b1bc
00000220: 4b32 5a3d 2ba0 b4bc eff5 593d 7cf9 d3bd
00000230: 1418 883d fff3 f3bd d5b2 a93d aeba 8ebd
00000240: 2f5f 90bd 6362 31bd 1456 b2bd 9cbe f53c
00000250: 5f3c abbc 270c a3b9 97f8 0a3c 5bff 883d
00000260: d5da 803d 0eee 1e3c ada1 73bd d2b7 8e3d
00000270: ac22 9bbd 2744 d3bd 9af4 c63c 88c6 fabc
00000280: 0d0f f73d 37f6 9cbd 50f9 5bbd a4fc d5bd
00000290: 6c9f c4bc fac5 bc3d cc40 4ebd ac47 823d
000002a0: e49b 1f3d d576 5c3c 6aa0 a53d 54b6 e13d
000002b0: a1b1 ea3d e087 613d 9f35 c9bd 7ec9 0a3d
000002c0: 5f76 e23d d52a 31bd c3dc 8f3d cf89 b3bd
000002d0: 9483 f93c 8c97 cabb 4340 013e 4479 b0bd
000002e0: a8af c4bd 7edd e3bd 81b6 9cbd 20a9 683d
000002f0: 139a 26bd 16ea d93c 1f96 d73d aca2 e23c
00000300: e52f c53d f07e e23d 4da4 f33d ce34 43bc
00000310: cc90 1abd 708d e4bd d5b1 973c f8fd 473c
00000320: 7fe1 63bc e3f0 d6bb 7a71 a5bd 6260 5c3d
00000330: aeee 47bd 8586 aabd ac73 b23d 2766 48bc
00000340: 969a 063e 9eaf dd3d 9250 da3d a7f5 66bd
00000350: cf98 583c 5ba3 47bc cd7e 4e3d 1ed2 173e
00000360: a8ed 3f3d 806d 823c 5de5 6cbd b59d d0bc
00000370: 526f 93bd dbee f53c 43e8 a63d 32d9 b8bd
00000380: 4b13 863d 25b5 87bd 3b63 e9bc 6f0b a9bd
00000390: 50fd 71bd d63b 80bd a46f f23d 088a a73c
000003a0: c66f 20bd 0889 d03c c0ca 763d 347f debc
000003b0: fa1b df3d c3fb 48bd 6cbc 1a3e 30f4 dd3d
000003c0: 21dc be3d 7926 b63c d445 68bd 87b8 f33d
000003d0: ca90 c5bd cac8 36bb 94c3 1d3d a9bc bfbd
000003e0: 725e e03d bff0 a8bc b3a5 d83d 45b6 d43d
000003f0: 8b01 abbd 321f b43c 9488 ed3c 4f0f 2c3d
